Testing_Models/Model_CNN_v1.pt (torch, 13254 bytes, 10 tensors)

conv1.weight f4 [4, 1, 3]
00000000: 246e 8cbe 4054 81be 9be7 65be 0274 fa3e
00000010: 4e81 e83e e695 b7bd 38d8 023f c65c d43e
00000020: 8122 343e 833c f4be bdc2 13be fcfd f4be
-0.2742778 -0.2525959 -0.22451632 0.48916632 0.45411152 -0.08964138 0.51111174 0.4147703
0.17591287 -0.47702417 -0.14429756 -0.47850025

conv1.bias f4 [4]
00000000: ad9f 0c3e a69c 9ebe 0820 023f f185 233f
0.13732786 -0.30978888 0.50830126 0.63876253

conv2.weight f4 [16, 4, 3]
00000000: ebfe 42be 5df9 76be 091a 763e d875 ca3d
00000010: 15fa 13bd 6c57 4a3e c6d1 81bd 8b1d 0a3d
00000020: e9ac bb3d c959 b5be 300c 063e 721c 80be
00000030: ee08 7c3e 74ba d8bd 9efc 7d3e b102 b7bc
00000040: 6c80 54be fd6f 56be 6731 4d3e 86f4 873e
00000050: 3b03 34be fa45 52bd 8ed5 d33d b1cc a83e
00000060: d412 c5bd 232e 68be 3ea1 123e 6dff 95be
00000070: 6add a13d 16c4 a4be 8f89 acbe 28cc 953b
00000080: 8a37 49be 2141 1f3e c4ba 873c 6d15 e43c
00000090: 42f7 1d3e 7aa1 01be 5542 84be aaee 803e
000000a0: e455 08be 1e13 87be ad95 a63c ab2a 483e
000000b0: e6ac 8ebd 1886 a93e 8a29 aa3d b8e0 c13c
000000c0: e7fb 3cbb 6bb8 00bd f7bd 37be 5f9d 35be
000000d0: 4eef ebbd 52d2 3dbe 56e9 ba3d 41ab 413d
000000e0: d693 693e 6257 083e 8774 18be 07c3 1bbe
000000f0: a31c 583e ad44 1bbe 982a 94be 1e6f 9c3c
00000100: 40e7 9d3e 25db 4d3e 297e 453a d5d0 af3d
00000110: 32f2 f53d 63ff b5be 1882 00bd 869f babe
00000120: dbac 1dbe a163 09be 1196 0e3e 36cf 743e
00000130: eacd 6dbd c7d5 09be a3b1 353e 2990 9dbd
00000140: b67d c23d f704 90be d3f7 f73d de2f c4be
00000150: be87 b7bd f69d 2bbe 140e 73be d2d5 913d
00000160: 9d32 f53d e6ba 4b3e 07a7 a43d 9101 6c3e
00000170: 46d2 2a3e 2b4a 2ebe 54dc 95bd f51a aabe
00000180: b9d5 89be c111 ce3d d2bc 57be 98d0 4ebd
00000190: 60ee 38be e004 8dbd 1f77 9d3e 8533 61be
000001a0: 8569 c03d 442b 99bc 4497 693e 3ba9 b83e
000001b0: da4d 5cbe eab7 143c 66ac 5a3e 77b5 6c3e
000001c0: 3bf7 453e 7045 0d3e 0dce c8bd cf68 00be
000001d0: 36d5 053e 763e 1cbe 794c 91bc 637f 1dbe
000001e0: 015e 1fbc fb8b 363e 61af 38bd 765b 953e
000001f0: 7fa8 0cbd c957 473d 4084 333d e2cb 9a3d
00000200: 637f 863d 9c70 93be a996 afbe 9786 d9bd
00000210: 673e 413d 7851 a3bc e9f4 72be e323 6e3e
00000220: e884 0b3e beef a5bd aba2 92bd 616c 09be
00000230: 57c1 5e3d 9d78 193e b692 133e 08a0 63be
00000240: d5fd 213e 22ee 9a3d fe3a 41bc 9d80 3b3e
00000250: fafa 20be bd19 d4bd b768 40be 082e 4c3d
00000260: 7b1f 1a3e a9ef 173b 93dc 3a3b bfe9 7d3e
00000270: c1f3 003e 7ccd a13e dee2 263e 969c 14be
00000280: 703e aabe 2967 16be 9df7 373e c5b6 603e
00000290: 6dee 1c3c 968d 4e3e f6f0 ccbd 8e4f 283e
000002a0: b5bf 5cbe bc44 2f3e 1e96 87be 0d6c 043e
000002b0: 1bb3 51be 09ae 74be ad0c 06bd 26a9 ae3e
000002c0: 7743 15be 7a6f 9b3e 2354 2abe 4a48 8e3e
000002d0: 71a9 1a3e b6ed f93d b55a 87bd d05c a4be
000002e0: 271e af3d 2590 84bc 363d 78bd b601 9a3e
000002f0: be62 353d 7750 523e d16c aa3e e666 1a3e
-0.19042556 -0.24118562 0.24033369 0.09885758 -0.03612717 0.19759911 -0.06338839 0.03371958
0.09163839 -0.35420063 0.13090587 -0.25021702 0.24612781 -0.10582438 0.24803397 -0.02234015
-0.20752114 -0.20941158 0.20038377 0.26553744 -0.17579357 -0.051336266 0.10343467 0.32968667
-0.09622732 -0.2267385 0.14319322 -0.29296437 0.079035595 -0.32180852 -0.336987 0.0045714565
-0.19650093 0.15552188 0.016568549 0.027842248 0.15426353 -0.12659255 -0.25831857 0.25182086
-0.13314015 -0.26381773 0.020335043 0.19547527 -0.069665715 0.33110118 0.08308704 0.023666725
-0.002883667 -0.031425875 -0.1794356 -0.17735814 -0.11520253 -0.18537262 0.091265365 0.04728246
0.22810301 0.13314584 -0.14888202 -0.15211116 0.21104674 -0.15162916 -0.28938746 0.019095954
0.30840492 0.20103128 0.0007533753 0.085847534 0.12009086 -0.35546407 -0.031374067 -0.36449832
-0.1539797 -0.13416912 0.13924433 0.2390717 -0.058057703 -0.13460456 0.17743544 -0.07693512
0.09496634 -0.28128788 0.121078156 -0.3831777 -0.08961438 -0.16759476 -0.23735839 0.07120861
0.11972544 0.19895515 0.080396704 0.23047473 0.16681775 -0.1702048 -0.07317415 -0.33223692
-0.2692087 0.1006198 -0.21068123 -0.0504919 -0.18059683 -0.068856955 0.30754945 -0.2199231
0.09395126 -0.018697388 0.2281161 0.36066613 -0.21514073 0.009077052 0.21354827 0.23116098
0.19332592 0.1379602 -0.09804926 -0.12539981 0.13069615 -0.15258202 -0.01773666 -0.15380625
-0.009727002 0.17826836 -0.04508913 0.29171342 -0.034340378 0.048667703 0.043827295 0.07558419
0.06567266 -0.28796852 -0.34294632 -0.10621374 0.047178652 -0.019936308 -0.23726238 0.23255877
0.13624918 -0.08102368 -0.07159933 -0.1342025 0.054383602 0.14987417 0.14411435 -0.22229016
0.15819485 0.075649515 -0.01179385 0.18310781 -0.1572074 -0.10356472 -0.18789946 0.049848586
0.15051071 0.002318362 0.002851282 0.24796198 0.12592985 0.31602085 0.1629748 -0.14512858
-0.3325076 -0.1468779 0.1796555 0.21944721 0.0095783295 0.20171198 -0.10006897 0.16436598
-0.21557505 0.17116064 -0.26481718 0.12931843 -0.2047848 -0.23894514 -0.032726932 0.34113425
-0.14576517 0.30358487 -0.16633658 0.27789527 0.151037 0.12203543 -0.06609098 -0.3210206
0.08550673 -0.016182015 -0.06060525 0.3007943 0.04428362 0.20538507 0.33286145 0.15078315

conv2.bias f4 [16]
00000000: 8dfc 58be 33e3 15be 5b12 f93d eef2 993d
00000010: d156 173e 0b16 a7be 89bc 0cbd 4a9c b4be
00000020: 200d 5ebd c5aa 1ebe e7d6 26be f24c 5a3e
00000030: b2ed b33e 9fcc 893e 50a2 c23e 1883 ccbc
-0.2119009 -0.14637451 0.12161704 0.07517038 0.14779212 -0.32634005 -0.03435949 -0.3527549
-0.054211736 -0.15494831 -0.16292916 0.21318415 0.35142285 0.26913926 0.3801446 -0.024964854

conv3.weight f4 [32, 16, 3]
00000000: 7a2a 633d 5b7c 69bd 409d 333d 8b96 753e
00000010: df6d 143e 9eb9 813e 4f56 b23d 2ab1 a1bb
00000020: 0173 9fbc a1d2 ac3d 5a93 403e 299a f53d
00000030: 6c67 a43d 9d2d 223e 0cf1 aebd 50ab b0bc
00000040: c9c7 8a3d a8ed b6bd d0ee cd3d fbf0 b9bd
00000050: c0ba d2bd 043f e8bd f3ca dbbc 0bf2 aa3c
00000060: b88f 063e 0879 ac3d 8137 353d d49f 52be
00000070: 3915 5cbe 4166 dbbd a4ea db3c e623 15be
00000080: d3ae ba3d 6e70 f0bd 942c 7fbd 39e8 c83d
00000090: e06d 4c3e 29df 933c a483 ea3d 9659 213e
000000a0: b784 34bd fd11 563e d9b7 3d3b f8b8 3b3e
000000b0: 9686 093e 1623 1a3e 9768 c43d eb23 2c3e
000000c0: 4c03 3fbd c2ec afbc 10bb fe3d 6717 2e3e
000000d0: 53e0 b93d 0d1f 933d 2fec ffbd 6e81 22be
000000e0: 0da5 ffbd c0e6 d63c 7ef1 133e 912b 603e
000000f0: 6fe4 0a3e c914 dc3d bc10 84bd 27fd d2bc
00000100: 9058 11be f8e7 0fbe 65a1 273e a9e3 26bd
00000110: 8bfe 503c 4e18 00bd 3da5 d6bc fb6a a9bd
00000120: f7e5 633e 04be 0b3e 64ec f93c 3584 6bbe
00000130: a556 07be 0260 ccbc 3ef5 66bc 572f f43d
00000140: 85bd e03d fe55 2c3e 82da 2e3e fee9 563c
00000150: 42fa 8c3d 3545 3f3e 9f29 6a3e f971 f0bb
00000160: 862f 033e f39b 2bbd 99e9 203e df84 6e3e
00000170: b927 7c3e f643 3e3e 9d54 423e 8742 303e
00000180: 79a5 dbbd bd24 c5bb cab7 fa3d 8087 49bd
00000190: 9da3 863d d3bc adbd 9236 ddbd 2e1c eb3d
000001a0: 1869 ce3c 3229 12be f88b 5fbb f5fa c53d
000001b0: 6f8f 4bbd 00da 233d b7bb 173e 0eb3 dc3d
000001c0: 348d 9d3d dd02 f13d 1c69 95bd 9db7 f53d
000001d0: 1e9e 1c3e 78e7 433d 8f68 90bd 8213 043e
000001e0: 4fd8 573c 044f 05bc e3f4 773d 1356 933d
000001f0: f2dd f53d 672c 523d d7f0 72bc 4b01 193e
00000200: bf76 d0bd e6b8 a7bd 83b2 35bc 744a 493d
00000210: 3e30 1bbe ae8d afba 0059 d93c 7788 a6bd
00000220: 0ca5 ecbd e827 01be b9a9 a03d 53e7 17be
00000230: aa15 403d f4ca 13bc 6cff b3bd 7136 69bd
00000240: d249 adbd bf7b 2a3e 832f 923d 7b28 86be
00000250: 14df 82be 68f2 3d3d 5654 f3bd 7ed9 57bd
00000260: 5319 05be 06ad 62be ce5d 6dbe 276d 54be
00000270: aec0 743c 78e0 2bbd f91c ff3d 1431 ec3d
00000280: a5c1 393e b6ff 583c 15f0 99bd cd71 5cbd
00000290: c5a1 123d 882d 5f3d 6f50 1b3d 9125 e83d
000002a0: 9fc5 3cbe aec0 0abe 2de1 97be 5806 f03c
000002b0: 6167 373c 041b 2d3e d93e 61bd 3ab2 acbc
000002c0: 948e af3d 866a c43a 6f75 193e 6678 17bd
000002d0: baed 3bbd f067 0ebe 1a71 1ebd cbe1 b63d
000002e0: cd12 a93c fa47 9b3b 12fc 47be c7bf 94be
000002f0: 4ad0 fcbd a17e 05be 0f19 c5bd cc9a ffbc
00000300: 3f5f 08bd 8157 64bd 2150 af3d 77d9 54be
00000310: 3445 4ebe 60b7 1abe 6ab2 333d ad38 e1bd
00000320: cfe0 05be b427 03be eb1e 20be a8ab c33c
00000330: 9f6e 433c 61c3 6b3c a5b4 103d 3a9a 92bd
00000340: 986c 2bbd 2cdc 483e 4db1 cbbb 0a9a 683d
00000350: a5e6 58bc 075a bf3d 3af7 c43d 6427 4b3e
00000360: d06a 26bd a31b 42bd e405 bebc 9e56 ba3d
00000370: 6ee5 5f3e 0b3d 183d 82fc 383d 2012 383e
00000380: a3ef 4bbc 86b4 d23d 6254 81bd a56a 463e
00000390: 3d62 8b3d 930a d2bd 0114 30be ef19 dbbc
000003a0: 55be d7bd 5589 a8bd c531 91be 28d6 8ebe
000003b0: ab6e 5abd a894 48bd 4fb1 5d3d a4c5 b3bd
000003c0: b8bf 56be 39c3 a33c e949 dbbd 7192 383e
000003d0: 449a a83d 7f22 7a3d 02d1 86bd 1e42 fd3d
000003e0: 257f cd3d d8a3 213e eaed 3b3e 70d9 053e
000003f0: 0fcd 023e e5b4 8e3d 7f46 0e3e 0123 18bd
0.05546043 -0.05700336 0.043851137 0.23983209 0.14495037 0.25336927 0.08707868 -0.0049344497
-0.019464018 0.08438612 0.1880621 0.11992294 0.08027539 0.15837713 -0.0854207 -0.021566063
0.06776387 -0.08932048 0.100553155 -0.090791665 -0.10289526 -0.11340144 -0.026830172 0.020867368
0.13140762 0.084215224 0.044242386 -0.20568782 -0.21492471 -0.10712863 0.026845284 -0.14564475
0.09115376 -0.11740194 -0.062298372 0.09809918 0.19963789 0.018050747 0.1145089 0.1575683
-0.04407188 0.209053 0.0028948693 0.18332279 0.13430247 0.15052447 0.095902614 0.16810577
-0.046634004 -0.0214752 0.12438023 0.17001115 0.090759896 0.07183657 -0.1249622 -0.15869686
-0.12482653 0.026233077 0.1444759 0.2189162 0.13563703 0.10746152 -0.06448504 -0.025755478
-0.1419394 -0.14053333 0.16370161 -0.040744457 0.012756 -0.03127318 -0.026201839 -0.08272358
0.22255693 0.13646704 0.030508228 -0.22999652 -0.13216646 -0.024948124 -0.014096556 0.11923092
0.10973648 0.16829678 0.17075542 0.0131173115 0.068836704 0.18678744 0.2286744 -0.0073378053
0.12811098 -0.04189677 0.1571411 0.23292874 0.24624528 0.18580613 0.1897759 0.17212878
-0.10724921 -0.0060163424 0.12242086 -0.04920149 0.065741755 -0.08483281 -0.10801424 0.11479984
0.025196597 -0.14273527 -0.0034110527 0.09667007 -0.049697336 0.040002823 0.14817701 0.107763395
0.07692948 0.11768124 -0.07295439 0.11997912 0.15294692 0.047828168 -0.07051193 0.12898067
0.013174131 -0.008136515 0.060536277 0.07194152 0.12005223 0.051311877 -0.0148279285 0.149419
-0.10178899 -0.081895635 -0.011089924 0.04914327 -0.15155122 -0.0013393664 0.026531696 -0.08131497
-0.11554918 -0.1261288 0.07844872 -0.14834337 0.04689566 -0.009020556 -0.08788952 -0.056936685
-0.08461346 0.16648768 0.071379684 -0.2620276 -0.2556082 0.046373755 -0.1188132 -0.05269765
-0.12997942 -0.22136316 -0.23180315 -0.20744763 0.014938517 -0.041962117 0.12456698 0.115327984
0.18140276 0.01324456 -0.07516495 -0.053819466 0.035798807 0.05448678 0.037918504 0.1133529
-0.18434761 -0.13550064 -0.29663983 0.0292999 0.011194081 0.16904837 -0.054991577 -0.021081079
0.085721165 0.001498536 0.14986204 -0.036980055 -0.04588101 -0.13906837 -0.03868208 0.08929785
0.020638848 0.004738805 -0.19529751 -0.29052565 -0.123444155 -0.13036586 -0.0962392 -0.031201743
-0.03329396 -0.055747513 0.08560205 -0.20786081 -0.20143586 -0.15109015 0.04387132 -0.10997138
-0.13074039 -0.12808114 -0.15636794 0.023885563 0.01192823 0.014389844 0.035328526 -0.07158323
-0.04185161 0.19615239 -0.0062162043 0.056787528 -0.013238584 0.09343343 0.09617467 0.19839245
-0.040629208 -0.047389638 -0.023196168 0.09098552 0.21864864 0.03716759 0.045162685 0.17975664
-0.012447271 0.10288338 -0.06314923 0.19376619 0.06805847 -0.10255923 -0.17195131 -0.026745765
-0.1053435 -0.08229319 -0.28358284 -0.27897763 -0.053328197 -0.048969895 0.054124173 -0.08777931
-0.20971572 0.01999055 -0.107074566 0.18024613 0.08232549 0.061068054 -0.06582834 0.123661265
0.100340165 0.15785158 0.18352476 0.13071227 0.12773536 0.06968097 0.1389408 -0.037142757

conv3.bias f4 [32]
00000000: f9d6 0b3e a795 a73b 446c 00be 0ee6 28be
00000010: f8bc a8bd da22 1f3e 6eb9 7c3b dc2d bc3d
00000020: fe64 c63c e1d3 6a3d 743d 0b3d 8a28 223d
00000030: bdf7 16be 4f4e 033e 3dcc fa3d a479 c23b
00000040: b3e6 5fbd 458c 03be baae f03d 3968 5c3e
00000050: 5f65 97bd 5bdc acbc 424b df3b eee9 13bc
00000060: fb58 523d 66b9 a1bd ee63 823d d25f fd3c
00000070: 0113 ac3c 8a70 213e d1b4 9bbd fe30 68bd
0.13656224 0.0051142755 -0.125413 -0.16494009 -0.08239168 0.15540639 0.0038562673 0.091884345
0.024218079 0.05733097 0.033994153 0.039589442 -0.14742942 0.12822841 0.122459866 0.005934911
-0.05466337 -0.12846477 0.117520764 0.21524133 -0.07392382 -0.021101167 0.0068143914 -0.009027941
0.05135439 -0.0789669 0.06366716 0.03092948 0.021005156 0.15765586 -0.07602847 -0.056687348

linear1.weight f4 [16, 32]
00000000: 720b a13d 6367 c8bd f064 f93d cda5 d13b
00000010: 3357 8e3e 3490 113d 6d04 c53d c3ad d6bc
00000020: b855 3e3d 4814 c7bd badd fd3d 27f9 483e
00000030: 13e6 d73d fd85 a53d 19fa e63d 9a05 253e
00000040: ab33 a7bc f753 f4bc d49c bcbc 44d7 7cbd
00000050: 7b66 18bd d187 5b3e c72f c83d 213d 2a3e
00000060: 7f74 c9bd 82bc c03c 2db4 3dbd 59b2 9dbd
00000070: 516f 393e a691 cebc a4ae 01be d04b c9bc
00000080: 50ca dc3d 9d1d e5bc cf0c b9bd 537b d73c
00000090: b0d6 f83d f399 cebd fae3 a8bc 761b 10be
000000a0: 8136 37be 5218 30be 5e93 11be 6b75 6f3e
000000b0: 5368 713e 62b0 90bd e6ab 403e 8795 c53d
000000c0: a4c7 233e 44eb 153e a6a1 f83d a4b9 183e
000000d0: ab8e 823c c26b 663e c3e8 f33d b6a2 ca3d
000000e0: f61f 633e 56d6 d6bd ab53 1d3d c0f4 02be
000000f0: 99a3 58bd 572f b83d 1cd0 fcbd b070 6c3d
00000100: a1b5 1a3e 8159 3b3d 9cd7 153d 78be 383e
00000110: 0045 da3d ee8a d4bd aef1 e53d e47f b8bc
00000120: 015a fabd d900 0e3e 6100 98bd abaa 8d3d
00000130: fbab be3d 4483 133e 0f2f 19be 8697 d73d
00000140: a356 be3d f0ed 99bc 9a04 bebc 928f 41be
00000150: bc1f 253d ff79 523e a6a9 d9bd f289 093d
00000160: 854c 6b3e 2cfc b93c 8e92 143e 9987 033e
00000170: 4915 ad3c 0a64 0bbd 1189 0a3d 99d8 dc3c
00000180: 20c2 823d bdf3 dd3d e076 8b3d 9209 0e3e
00000190: 2f16 813e c419 083e 11ee 153e ea81 943d
000001a0: 5732 413d cf6a 20be d9ea 11be 83fa 0fbd
000001b0: 0364 c4bd 38bc da3d 0af7 1a3e f894 3e3e
000001c0: 8abf d73d 59c7 a7bd 14cc 49be 1d98 d7bd
000001d0: fefd 933d ab87 e23d 584b 623e 84dc 3f3e
000001e0: 5f48 803e 03b8 a5bd 86ee 253d 92a1 e4bb
000001f0: a830 edbd 7ae8 213e 7ac2 73bd c00a 8d3d
00000200: 03f5 21bd e9aa 0abe 894f 013d ac2d eb3d
00000210: ed19 12bd b36a ff3d f1d0 d73b 9766 823d
00000220: 9087 0bbe 4366 89bd bb4a 713d 8106 5c3e
00000230: b16e debc e003 2b3e 33dd 2d3c 8f5f 783d
00000240: 02da 353d 6bb9 073e 2dff 55bd 258e 3abd
00000250: 7d8b 293e e113 743d 0a9c 3a3e eb56 263e
00000260: 0835 52bb a048 09bc 385c 4f3e 0dc1 8abd
00000270: caae b23c ac0c 8f3d cda1 e0bd 5408 4f3e
00000280: acea 55bd 2419 83be f6c7 c2bd 9ffd 9a3e
00000290: da8c 0f3d 5a25 0abe 0345 b3bd 8c3f be3d
000002a0: 1083 e63d 1b96 85be b42d 9fbc 0143 503e
000002b0: 5d01 46bd 91d0 d93d 5b0b 19be 0cc3 98bd
000002c0: 06ca 4b3c 244f 2d3e 0e44 78be 36bf 8dbe
000002d0: 507a 0f3c c708 92bd 17fd d7bd dfd5 503e
000002e0: 72a1 1c3e be4f b23d 7eb6 51bb 1451 c9bd
000002f0: d8f7 cd3d 485b 233d a0ba 6fbd 0909 18bd
00000300: de8f aebd 7ab7 a03d 36bc 903d d29d f73d
00000310: a4d5 19bd 2b9f 1bbd e008 3f3e 7e82 b0bc
00000320: 9a07 d4bd 8b5c 0bbe ca3d 7c3c 2f48 b93d
00000330: e290 f3bd ce87 143d aa16 0b3e 5411 62bc
00000340: 232a 253e 193c 573e 475c 22be f574 663d
00000350: f4ad 013e cd26 453e c2df bd3d 356b 87bd
00000360: 1fca 833c 87ef f33d 9376 693c dce2 c93d
00000370: db6a c33d 194d 173e c5df 013d e4b1 923d
00000380: 6df5 25bd 0106 673e 756a 713d fd14 59bd
00000390: fc7a e5bd 2e2e c3bd aa1b 083e e994 3ebd
000003a0: 568c 44bd 37b0 c23d 354e 2a3e 1c4a 88be
000003b0: eccc 463a a317 393e bd14 e1bc 4299 a23d
000003c0: d8f8 e2bd e5a6 ebbd 4685 3a3e a05e 7f3e
000003d0: 69eb e7bd 2062 5dbe 6aef e4bd 3d74 e4bd
000003e0: 86ad 92be 0589 edbc d4fb 383e 2d06 593e
000003f0: 91d5 61be 7b36 cc3c 0aa7 7cbe 54a8 11be
0.07863511 -0.097853445 0.121774554 0.006397939 0.27800903 0.035537913 0.09619985 -0.026205903
0.046468467 -0.09720665 0.123958066 0.19626294 0.1054193 0.08082197 0.11278171 0.16115418
-0.02041038 -0.029825194 -0.023024 -0.06172873 -0.037207108 0.21438529 0.09774738 0.16624881
-0.09836673 0.023527388 -0.046314407 -0.07700033 0.1810887 -0.025215935 -0.12664276 -0.024572283
0.107807755 -0.027968222 -0.09035646 0.026303923 0.121503234 -0.10087957 -0.02061652 -0.14072976
-0.17891885 -0.17196777 -0.14216372 0.23384635 0.23574953 -0.07064892 0.18815574 0.09647661
0.15994126 0.14640528 0.12140207 0.14914566 0.01593717 0.22502044 0.1190963 0.09894316
0.22180161 -0.104901 0.03840987 -0.12788677 -0.052890394 0.08993404 -0.12344381 0.057724655
0.15108348 0.045739654 0.036582574 0.18041408 0.10657692 -0.10378061 0.11227737 -0.02252192
-0.12224198 0.13867511 -0.07421947 0.06917318 0.093101464 0.14405543 -0.14959358 0.10526948
0.092938684 -0.018790215 -0.023195554 -0.18902424 0.040313467 0.2055435 -0.10628061 0.03357882
0.22978409 0.022703253 0.14509031 0.12844695 0.021128314 -0.03403095 0.033822123 0.02695875
0.06384683 0.10837505 0.06809783 0.13870838 0.25212237 0.13291079 0.14641596 0.07251342
0.04716715 -0.15665744 -0.14249744 -0.035151016 -0.09589388 0.10680431 0.151333 0.18611515
0.1053458 -0.081923194 -0.19706756 -0.1052706 0.072261795 0.11061033 0.22099054 0.18736464
0.25055215 -0.08091738 0.040510677 -0.0069772685 -0.11581546 0.15811339 -0.05951164 0.06886816
-0.039540302 -0.1354176 0.03156999 0.114833206 -0.035669256 0.12471523 0.006586187 0.06367224
-0.13625932 -0.06708958 0.05890916 0.21486856 -0.027152391 0.16700697 0.01061182 0.060638007
0.04439736 0.13254325 -0.052245308 -0.045545716 0.16557117 0.05958927 0.18223587 0.16244094
-0.0032075066 -0.008379132 0.20250022 -0.06775103 0.021811862 0.06984839 -0.10968361 0.2021802
-0.052225754 -0.25605118 -0.09510796 0.30271623 0.035046436 -0.13490811 -0.08753397 0.09289464
0.11255467 -0.26091084 -0.019430973 0.2033806 -0.048341144 0.10635484 -0.14945738 -0.07459077
0.012438303 0.16924721 -0.24244711 -0.27684945 0.008757189 -0.071305804 -0.1054632 0.20394085
0.15295961 0.08706616 -0.0031999643 -0.098299176 0.10057038 0.039881974 -0.05852759 -0.03711799
-0.08523534 0.078474954 0.070671484 0.12090649 -0.03755726 -0.03799359 0.1865573 -0.021546599
-0.103530124 -0.13609521 0.015395591 0.09046971 -0.118928686 0.036262326 0.13582864 -0.013798077
0.16129355 0.21019019 -0.15855514 0.056263883 0.12664014 0.19253083 0.09271194 -0.06612245
0.01608759 0.119109206 0.014249462 0.09857723 0.095418654 0.14775504 0.031707544 0.07162836
-0.04051726 0.22560884 0.058939416 -0.05299853 -0.11205098 -0.095302925 0.13291803 -0.04652873
-0.047985397 0.095062666 0.16631396 -0.2661904 0.00075836363 0.18075423 -0.02747571 0.07939388
-0.110826194 -0.11506442 0.18214902 0.2493844 -0.11324198 -0.21619463 -0.11178477 -0.11154983
-0.28648013 -0.028996 0.18064815 0.21193762 -0.22054125 0.024928322 -0.24673095 -0.14224368

linear1.bias f4 [16]
00000000: edfe 26bd 91ca 02be 4dd2 083e e6db 62be
00000010: 5a3c 863b ff49 bbbd f43f 0bbe 1de7 1d3e
00000020: 0bf6 de3d 4102 083e 9230 3b3c 58f1 663e
00000030: 0979 bd3d a36c d6bd 5a86 b4bd afab f93d
-0.04077046 -0.12772585 0.13361473 -0.22154197 0.00409655 -0.09144973 -0.13598615 0.15420194
0.10886773 0.1328211 0.011425154 0.22553003 0.09251601 -0.104699396 -0.08814688 0.12190949

linear2.weight f4 [2, 16]
00000000: bc75 a7bd 6f5b 7ebe 607a 58be d1e7 99be
00000010: 97bc 20be 0fd9 cc3c 2830 70be eb19 683e
00000020: d737 f23c 34c9 3d3e bf06 83be 7c02 a33e
00000030: 071c 96bd caba 85be 3ab3 63bd 14b7 0c3d
00000040: 604c 393e 125f f7bc 2b69 90bd cbcd d33d
00000050: 541d a93d 693a 563e 1c32 8abd f965 5abe
00000060: a81a 98be 1073 b8be fb4b d8bc a78d 46bd
00000070: b365 413e cb27 0e3d 6c83 8b3e b7e9 c8be
-0.08176753 -0.24839567 -0.21140432 -0.30059674 -0.15696941 0.025005845 -0.2345587 0.22666137
0.029567642 0.18533784 -0.25591084 0.31837833 -0.073295645 -0.2611907 -0.055590846 0.034354284
0.18095541 -0.0301967 -0.07051309 0.10341986 0.08257547 0.20920719 -0.06747839 -0.21327962
-0.29707837 -0.36025286 -0.026403418 -0.048474934 0.18886451 0.03470592 0.27248704 -0.3924081

linear2.bias f4 [2]
00000000: a77f 13be cc14 613d
-0.14404164 0.054951474
